NODELIST=gammagpu10
MASTER_ADDR=gammagpu10
Some weights of the model checkpoint were not used when initializing ControlNetSDVModel: 
 ['time_embedding.cond_proj.weight']
Keyword arguments {'text_encoder': CLIPTextModel(
  (text_model): CLIPTextTransformer(
    (embeddings): CLIPTextEmbeddings(
      (token_embedding): Embedding(49408, 1024)
      (position_embedding): Embedding(77, 1024)
    )
    (encoder): CLIPEncoder(
      (layers): ModuleList(
        (0-22): 23 x CLIPEncoderLayer(
          (self_attn): CLIPSdpaAttention(
            (k_proj): Linear(in_features=1024, out_features=1024, bias=True)
            (v_proj): Linear(in_features=1024, out_features=1024, bias=True)
            (q_proj): Linear(in_features=1024, out_features=1024, bias=True)
            (out_proj): Linear(in_features=1024, out_features=1024, bias=True)
          )
          (layer_norm1): LayerNorm((1024,), eps=1e-05, elementwise_affine=True)
          (mlp): CLIPMLP(
            (activation_fn): GELUActivation()
            (fc1): Linear(in_features=1024, out_features=4096, bias=True)
            (fc2): Linear(in_features=4096, out_features=1024, bias=True)
          )
          (layer_norm2): LayerNorm((1024,), eps=1e-05, elementwise_affine=True)
        )
      )
    )
    (final_layer_norm): LayerNorm((1024,), eps=1e-05, elementwise_affine=True)
  )
)} are not expected by StableVideoDiffusionPipelineControlNet and will be ignored.
Loading existing controlnet weights
layers per block is 2
Loading existing vae weights
***** Running training *****
  Num Epochs = 100
  Instantaneous batch size per device = 1
  Gradient Accumulation steps = 1
  Total optimization steps = None
Loading pipeline components...:   0%|          | 0/5 [00:00<?, ?it/s]Loading pipeline components...: 100%|██████████| 5/5 [00:00<00:00, 220.44it/s]
…
